<Figure size 640x480 with 64 Axes>
----------------------------------------------------------------
        Layer (type)               Output Shape         Param #
================================================================
            Conv2d-1           [-1, 64, 16, 16]           9,408
       BatchNorm2d-2           [-1, 64, 16, 16]             128
              ReLU-3           [-1, 64, 16, 16]               0
         MaxPool2d-4             [-1, 64, 8, 8]               0
            Conv2d-5             [-1, 64, 8, 8]           4,096
       BatchNorm2d-6             [-1, 64, 8, 8]             128
              ReLU-7             [-1, 64, 8, 8]               0
            Linear-8               [-1, 64, 16]           1,024
           Softmax-9               [-1, 64, 16]               0
           Linear-10               [-1, 64, 16]           1,024
      BatchNorm1d-11               [-1, 64, 16]             128
           Linear-12               [-1, 64, 64]           4,096
      BatchNorm2d-13            [-1, 16, 64, 4]              32
      LambdaLayer-14             [-1, 64, 8, 8]               0
      BatchNorm2d-15             [-1, 64, 8, 8]             128
             ReLU-16             [-1, 64, 8, 8]               0
           Conv2d-17            [-1, 256, 8, 8]          16,384
      BatchNorm2d-18            [-1, 256, 8, 8]             512
           Conv2d-19            [-1, 256, 8, 8]          16,384
      BatchNorm2d-20            [-1, 256, 8, 8]             512
             ReLU-21            [-1, 256, 8, 8]               0
       Bottleneck-22            [-1, 256, 8, 8]               0
           Conv2d-23             [-1, 64, 8, 8]          16,384
      BatchNorm2d-24             [-1, 64, 8, 8]             128
             ReLU-25             [-1, 64, 8, 8]               0
           Linear-26               [-1, 64, 16]           1,024
          Softmax-27               [-1, 64, 16]               0
           Linear-28               [-1, 64, 16]           1,024
      BatchNorm1d-29               [-1, 64, 16]             128
           Linear-30               [-1, 64, 64]           4,096
      BatchNorm2d-31            [-1, 16, 64, 4]              32
      LambdaLayer-32             [-1, 64, 8, 8]               0
      BatchNorm2d-33             [-1, 64, 8, 8]             128
             ReLU-34             [-1, 64, 8, 8]               0
           Conv2d-35            [-1, 256, 8, 8]          16,384
      BatchNorm2d-36            [-1, 256, 8, 8]             512
             ReLU-37            [-1, 256, 8, 8]               0
       Bottleneck-38            [-1, 256, 8, 8]               0
           Conv2d-39             [-1, 64, 8, 8]          16,384
      BatchNorm2d-40             [-1, 64, 8, 8]             128
             ReLU-41             [-1, 64, 8, 8]               0
           Linear-42               [-1, 64, 16]           1,024
          Softmax-43               [-1, 64, 16]               0
           Linear-44               [-1, 64, 16]           1,024
      BatchNorm1d-45               [-1, 64, 16]             128
           Linear-46               [-1, 64, 64]           4,096
      BatchNorm2d-47            [-1, 16, 64, 4]              32
      LambdaLayer-48             [-1, 64, 8, 8]               0
      BatchNorm2d-49             [-1, 64, 8, 8]             128
             ReLU-50             [-1, 64, 8, 8]               0
           Conv2d-51            [-1, 256, 8, 8]          16,384
      BatchNorm2d-52            [-1, 256, 8, 8]             512
             ReLU-53            [-1, 256, 8, 8]               0
       Bottleneck-54            [-1, 256, 8, 8]               0
           Conv2d-55            [-1, 128, 8, 8]          32,768
      BatchNorm2d-56            [-1, 128, 8, 8]             256
             ReLU-57            [-1, 128, 8, 8]               0
           Linear-58               [-1, 64, 16]           2,048
          Softmax-59               [-1, 64, 16]               0
           Linear-60               [-1, 64, 32]           4,096
      BatchNorm1d-61               [-1, 64, 32]             128
           Linear-62               [-1, 64, 64]           8,192
      BatchNorm2d-63            [-1, 16, 64, 4]              32
      LambdaLayer-64            [-1, 128, 8, 8]               0
        AvgPool2d-65            [-1, 128, 4, 4]               0
      BatchNorm2d-66            [-1, 128, 4, 4]             256
             ReLU-67            [-1, 128, 4, 4]               0
           Conv2d-68            [-1, 512, 4, 4]          65,536
      BatchNorm2d-69            [-1, 512, 4, 4]           1,024
           Conv2d-70            [-1, 512, 4, 4]         131,072
      BatchNorm2d-71            [-1, 512, 4, 4]           1,024
             ReLU-72            [-1, 512, 4, 4]               0
       Bottleneck-73            [-1, 512, 4, 4]               0
           Conv2d-74            [-1, 128, 4, 4]          65,536
      BatchNorm2d-75            [-1, 128, 4, 4]             256
             ReLU-76            [-1, 128, 4, 4]               0
           Linear-77               [-1, 16, 16]           2,048
          Softmax-78               [-1, 16, 16]               0
           Linear-79               [-1, 16, 32]           4,096
      BatchNorm1d-80               [-1, 16, 32]              32
           Linear-81               [-1, 16, 64]           8,192
      BatchNorm2d-82            [-1, 16, 16, 4]              32
      LambdaLayer-83            [-1, 128, 4, 4]               0
      BatchNorm2d-84            [-1, 128, 4, 4]             256
             ReLU-85            [-1, 128, 4, 4]               0
           Conv2d-86            [-1, 512, 4, 4]          65,536
      BatchNorm2d-87            [-1, 512, 4, 4]           1,024
             ReLU-88            [-1, 512, 4, 4]               0
       Bottleneck-89            [-1, 512, 4, 4]               0
           Conv2d-90            [-1, 128, 4, 4]          65,536
      BatchNorm2d-91            [-1, 128, 4, 4]             256
             ReLU-92            [-1, 128, 4, 4]               0
           Linear-93               [-1, 16, 16]           2,048
          Softmax-94               [-1, 16, 16]               0
           Linear-95               [-1, 16, 32]           4,096
      BatchNorm1d-96               [-1, 16, 32]              32
           Linear-97               [-1, 16, 64]           8,192
      BatchNorm2d-98            [-1, 16, 16, 4]              32
      LambdaLayer-99            [-1, 128, 4, 4]               0
     BatchNorm2d-100            [-1, 128, 4, 4]             256
            ReLU-101            [-1, 128, 4, 4]               0
          Conv2d-102            [-1, 512, 4, 4]          65,536
     BatchNorm2d-103            [-1, 512, 4, 4]           1,024
            ReLU-104            [-1, 512, 4, 4]               0
      Bottleneck-105            [-1, 512, 4, 4]               0
          Conv2d-106            [-1, 128, 4, 4]          65,536
     BatchNorm2d-107            [-1, 128, 4, 4]             256
            ReLU-108            [-1, 128, 4, 4]               0
          Linear-109               [-1, 16, 16]           2,048
         Softmax-110               [-1, 16, 16]               0
          Linear-111               [-1, 16, 32]           4,096
     BatchNorm1d-112               [-1, 16, 32]              32
          Linear-113               [-1, 16, 64]           8,192
     BatchNorm2d-114            [-1, 16, 16, 4]              32
     LambdaLayer-115            [-1, 128, 4, 4]               0
     BatchNorm2d-116            [-1, 128, 4, 4]             256
            ReLU-117            [-1, 128, 4, 4]               0
          Conv2d-118            [-1, 512, 4, 4]          65,536
     BatchNorm2d-119            [-1, 512, 4, 4]           1,024
            ReLU-120            [-1, 512, 4, 4]               0
      Bottleneck-121            [-1, 512, 4, 4]               0
          Conv2d-122            [-1, 256, 4, 4]         131,072
     BatchNorm2d-123            [-1, 256, 4, 4]             512
            ReLU-124            [-1, 256, 4, 4]               0
          Linear-125               [-1, 16, 16]           4,096
         Softmax-126               [-1, 16, 16]               0
          Linear-127               [-1, 16, 64]          16,384
     BatchNorm1d-128               [-1, 16, 64]              32
          Linear-129               [-1, 16, 64]          16,384
     BatchNorm2d-130            [-1, 16, 16, 4]              32
     LambdaLayer-131            [-1, 256, 4, 4]               0
       AvgPool2d-132            [-1, 256, 2, 2]               0
     BatchNorm2d-133            [-1, 256, 2, 2]             512
            ReLU-134            [-1, 256, 2, 2]               0
          Conv2d-135           [-1, 1024, 2, 2]         262,144
     BatchNorm2d-136           [-1, 1024, 2, 2]           2,048
          Conv2d-137           [-1, 1024, 2, 2]         524,288
     BatchNorm2d-138           [-1, 1024, 2, 2]           2,048
            ReLU-139           [-1, 1024, 2, 2]               0
      Bottleneck-140           [-1, 1024, 2, 2]               0
          Conv2d-141            [-1, 256, 2, 2]         262,144
     BatchNorm2d-142            [-1, 256, 2, 2]             512
            ReLU-143            [-1, 256, 2, 2]               0
          Linear-144                [-1, 4, 16]           4,096
         Softmax-145                [-1, 4, 16]               0
          Linear-146                [-1, 4, 64]          16,384
     BatchNorm1d-147                [-1, 4, 64]               8
          Linear-148                [-1, 4, 64]          16,384
     BatchNorm2d-149             [-1, 16, 4, 4]              32
     LambdaLayer-150            [-1, 256, 2, 2]               0
     BatchNorm2d-151            [-1, 256, 2, 2]             512
            ReLU-152            [-1, 256, 2, 2]               0
          Conv2d-153           [-1, 1024, 2, 2]         262,144
     BatchNorm2d-154           [-1, 1024, 2, 2]           2,048
            ReLU-155           [-1, 1024, 2, 2]               0
      Bottleneck-156           [-1, 1024, 2, 2]               0
          Conv2d-157            [-1, 256, 2, 2]         262,144
     BatchNorm2d-158            [-1, 256, 2, 2]             512
            ReLU-159            [-1, 256, 2, 2]               0
          Linear-160                [-1, 4, 16]           4,096
         Softmax-161                [-1, 4, 16]               0
          Linear-162                [-1, 4, 64]          16,384
     BatchNorm1d-163                [-1, 4, 64]               8
          Linear-164                [-1, 4, 64]          16,384
     BatchNorm2d-165             [-1, 16, 4, 4]              32
     LambdaLayer-166            [-1, 256, 2, 2]               0
     BatchNorm2d-167            [-1, 256, 2, 2]             512
            ReLU-168            [-1, 256, 2, 2]               0
          Conv2d-169           [-1, 1024, 2, 2]         262,144
     BatchNorm2d-170           [-1, 1024, 2, 2]           2,048
            ReLU-171           [-1, 1024, 2, 2]               0
      Bottleneck-172           [-1, 1024, 2, 2]               0
          Conv2d-173            [-1, 256, 2, 2]         262,144
     BatchNorm2d-174            [-1, 256, 2, 2]             512
            ReLU-175            [-1, 256, 2, 2]               0
          Linear-176                [-1, 4, 16]           4,096
         Softmax-177                [-1, 4, 16]               0
          Linear-178                [-1, 4, 64]          16,384
     BatchNorm1d-179                [-1, 4, 64]               8
          Linear-180                [-1, 4, 64]          16,384
     BatchNorm2d-181             [-1, 16, 4, 4]              32
     LambdaLayer-182            [-1, 256, 2, 2]               0
     BatchNorm2d-183            [-1, 256, 2, 2]             512
            ReLU-184            [-1, 256, 2, 2]               0
          Conv2d-185           [-1, 1024, 2, 2]         262,144
     BatchNorm2d-186           [-1, 1024, 2, 2]           2,048
            ReLU-187           [-1, 1024, 2, 2]               0
      Bottleneck-188           [-1, 1024, 2, 2]               0
          Conv2d-189            [-1, 256, 2, 2]         262,144
     BatchNorm2d-190            [-1, 256, 2, 2]             512
            ReLU-191            [-1, 256, 2, 2]               0
          Linear-192                [-1, 4, 16]           4,096
         Softmax-193                [-1, 4, 16]               0
          Linear-194                [-1, 4, 64]          16,384
     BatchNorm1d-195                [-1, 4, 64]               8
          Linear-196                [-1, 4, 64]          16,384
     BatchNorm2d-197             [-1, 16, 4, 4]              32
     LambdaLayer-198            [-1, 256, 2, 2]               0
     BatchNorm2d-199            [-1, 256, 2, 2]             512
            ReLU-200            [-1, 256, 2, 2]               0
          Conv2d-201           [-1, 1024, 2, 2]         262,144
     BatchNorm2d-202           [-1, 1024, 2, 2]           2,048
            ReLU-203           [-1, 1024, 2, 2]               0
      Bottleneck-204           [-1, 1024, 2, 2]               0
          Conv2d-205            [-1, 256, 2, 2]         262,144
     BatchNorm2d-206            [-1, 256, 2, 2]             512
            ReLU-207            [-1, 256, 2, 2]               0
          Linear-208                [-1, 4, 16]           4,096
         Softmax-209                [-1, 4, 16]               0
          Linear-210                [-1, 4, 64]          16,384
     BatchNorm1d-211                [-1, 4, 64]               8
          Linear-212                [-1, 4, 64]          16,384
     BatchNorm2d-213             [-1, 16, 4, 4]              32
     LambdaLayer-214            [-1, 256, 2, 2]               0
     BatchNorm2d-215            [-1, 256, 2, 2]             512
            ReLU-216            [-1, 256, 2, 2]               0
          Conv2d-217           [-1, 1024, 2, 2]         262,144
     BatchNorm2d-218           [-1, 1024, 2, 2]           2,048
            ReLU-219           [-1, 1024, 2, 2]               0
      Bottleneck-220           [-1, 1024, 2, 2]               0
          Conv2d-221            [-1, 512, 2, 2]         524,288
     BatchNorm2d-222            [-1, 512, 2, 2]           1,024
            ReLU-223            [-1, 512, 2, 2]               0
          Linear-224                [-1, 4, 16]           8,192
         Softmax-225                [-1, 4, 16]               0
          Linear-226               [-1, 4, 128]          65,536
     BatchNorm1d-227               [-1, 4, 128]               8
          Linear-228                [-1, 4, 64]          32,768
     BatchNorm2d-229             [-1, 16, 4, 4]              32
     LambdaLayer-230            [-1, 512, 2, 2]               0
       AvgPool2d-231            [-1, 512, 1, 1]               0
     BatchNorm2d-232            [-1, 512, 1, 1]           1,024
            ReLU-233            [-1, 512, 1, 1]               0
          Conv2d-234           [-1, 2048, 1, 1]       1,048,576
     BatchNorm2d-235           [-1, 2048, 1, 1]           4,096
          Conv2d-236           [-1, 2048, 1, 1]       2,097,152
     BatchNorm2d-237           [-1, 2048, 1, 1]           4,096
            ReLU-238           [-1, 2048, 1, 1]               0
      Bottleneck-239           [-1, 2048, 1, 1]               0
          Conv2d-240            [-1, 512, 1, 1]       1,048,576
     BatchNorm2d-241            [-1, 512, 1, 1]           1,024
            ReLU-242            [-1, 512, 1, 1]               0
          Linear-243                [-1, 1, 16]           8,192
         Softmax-244                [-1, 1, 16]               0
          Linear-245               [-1, 1, 128]          65,536
     BatchNorm1d-246               [-1, 1, 128]               2
          Linear-247                [-1, 1, 64]          32,768
     BatchNorm2d-248             [-1, 16, 1, 4]              32
     LambdaLayer-249            [-1, 512, 1, 1]               0
     BatchNorm2d-250            [-1, 512, 1, 1]           1,024
            ReLU-251            [-1, 512, 1, 1]               0
          Conv2d-252           [-1, 2048, 1, 1]       1,048,576
     BatchNorm2d-253           [-1, 2048, 1, 1]           4,096
            ReLU-254           [-1, 2048, 1, 1]               0
      Bottleneck-255           [-1, 2048, 1, 1]               0
          Conv2d-256            [-1, 512, 1, 1]       1,048,576
     BatchNorm2d-257            [-1, 512, 1, 1]           1,024
            ReLU-258            [-1, 512, 1, 1]               0
          Linear-259                [-1, 1, 16]           8,192
         Softmax-260                [-1, 1, 16]               0
          Linear-261               [-1, 1, 128]          65,536
     BatchNorm1d-262               [-1, 1, 128]               2
          Linear-263                [-1, 1, 64]          32,768
     BatchNorm2d-264             [-1, 16, 1, 4]              32
     LambdaLayer-265            [-1, 512, 1, 1]               0
     BatchNorm2d-266            [-1, 512, 1, 1]           1,024
            ReLU-267            [-1, 512, 1, 1]               0
          Conv2d-268           [-1, 2048, 1, 1]       1,048,576
     BatchNorm2d-269           [-1, 2048, 1, 1]           4,096
            ReLU-270           [-1, 2048, 1, 1]               0
      Bottleneck-271           [-1, 2048, 1, 1]               0
AdaptiveAvgPool2d-272           [-1, 2048, 1, 1]               0
          Linear-273                   [-1, 10]          20,490
================================================================
Total params: 12,828,926
Trainable params: 12,828,926
Non-trainable params: 0
----------------------------------------------------------------
Input size (MB): 0.01
Forward/backward pass size (MB): 6.54
Params size (MB): 48.94
Estimated Total Size (MB): 55.49
----------------------------------------------------------------
2021-04-03 22:24:43.686895: I tensorflow/stream_executor/platform/default/dso_loader.cc:49] Successfully opened dynamic library libcudart.so.11.0
…
